…
2024-02-20 14:10:21,042 :: INFO :: InteractionService :: Unrated interactions: 81.1%
2024-02-20 14:10:21,047 :: INFO :: InteractionInferenceService :: Train interactions: 34928 - Users: 463, Items: 396
2024-02-20 14:10:21,048 :: INFO :: InteractionInferenceService :: Future interactions: 148749 - Users: 463, Items: 396
2024-02-20 14:10:21,110 :: INFO :: root :: Not found an interactions change registers. Assume that users/items/interactions change from nothing.
2024-02-20 14:10:21,111 :: INFO :: root :: DeepFM(
  (lineal): CategoricalFeaturesLineal(
    (embedding): MultiFeatureEmbedding(
      (embedding): Embedding(859, 1)
    )
    - FeatureEmbedding0(size: 463, from: 0, to: 462)
    - FeatureEmbedding1(size: 396, from: 463, to: 858)
  )
  (fm): EmbeddingFactorizationMachine()
  (embedding): MultiFeatureEmbedding(
    (embedding): Embedding(859, 64)
  )
  - FeatureEmbedding0(size: 463, from: 0, to: 462)
  - FeatureEmbedding1(size: 396, from: 463, to: 858)
  (mlp): MultiLayerPerceptron(
    (mlp): Sequential(
      (0): Linear(in_features=128, out_features=50, bias=True)
      (1): BatchNorm1d(50, eps=1e-05, momentum=0.1, affine=True, track_running_stats=True)
      (2): ReLU()
      (3): Linear(in_features=50, out_features=10, bias=True)
      (4): BatchNorm1d(10, eps=1e-05, momentum=0.1, affine=True, track_running_stats=True)
      (5): ReLU()
      (6): Linear(in_features=10, out_features=1, bias=True)
    )
  )
  (act): ReLU()
)
2024-02-20 14:10:21,111 :: INFO :: root :: Not found an interactions change registers. Assume that users/items/interactions change from nothing.
2024-02-20 14:10:21,113 :: INFO :: root :: Train: 29688, Eval: 5240
2024-02-20 14:10:21,113 :: INFO :: root :: Train: 31435, Eval: 3493
2024-02-20 14:10:24,490 :: INFO :: root :: {'time': '0:00:03.37', 'epoch': 1, 'train_loss': 14.022300243377686, 'val_loss': 13.76605224609375, 'lr': 0.001}
…
2024-03-08 11:10:50,323 :: INFO :: InteractionInferenceService :: Check user_seq: True
2024-03-08 11:10:50,324 :: INFO :: InteractionInferenceService :: Check item_seq: True
2024-03-08 11:10:51,387 :: INFO :: InteractionService :: Unrated interactions: 81.2%
2024-03-08 11:10:51,391 :: INFO :: InteractionInferenceService :: Train interactions: 34953 - Users: 464, Items: 396
2024-03-08 11:10:51,392 :: INFO :: InteractionInferenceService :: Future interactions: 149127 - Users: 464, Items: 396
2024-03-08 11:10:51,451 :: INFO :: root :: DeepFM(
  (lineal): CategoricalFeaturesLineal(
    (embedding): MultiFeatureEmbedding(
      (embedding): Embedding(860, 1)
    )
    - FeatureEmbedding0(size: 464, from: 0, to: 463)
    - FeatureEmbedding1(size: 396, from: 464, to: 859)
  )
  (fm): EmbeddingFactorizationMachine()
  (embedding): MultiFeatureEmbedding(
    (embedding): Embedding(860, 64)
  )
  - FeatureEmbedding0(size: 464, from: 0, to: 463)
  - FeatureEmbedding1(size: 396, from: 464, to: 859)
  (mlp): MultiLayerPerceptron(
    (mlp): Sequential(
      (0): Linear(in_features=128, out_features=50, bias=True)
      (1): BatchNorm1d(50, eps=1e-05, momentum=0.1, affine=True, track_running_stats=True)
      (2): ReLU()
      (3): Linear(in_features=50, out_features=10, bias=True)
      (4): BatchNorm1d(10, eps=1e-05, momentum=0.1, affine=True, track_running_stats=True)
      (5): ReLU()
      (6): Linear(in_features=10, out_features=1, bias=True)
    )
  )
  (act): ReLU()
)
2024-03-08 11:10:51,451 :: INFO :: root :: 180 minutes wait time expired!.
2024-03-08 11:10:51,452 :: INFO :: root :: Found 1 new users.
2024-03-08 11:10:51,454 :: INFO :: root :: Train: 29710, Eval: 5243
2024-03-08 11:10:54,057 :: INFO :: root :: {'time': '0:00:02.60', 'epoch': 1, 'train_loss': 2.369800329336556, 'val_loss': 0.8572647571563721, 'lr': 0.001}
…
